module {
  tt.func public @kernel(%arg0: !tt.ptr<f32> {tt.divisibility = 16 : i32}, %arg1: !tt.ptr<f32> {tt.divisibility = 16 : i32}, %arg2: !tt.ptr<f32>, %arg3: !tt.ptr<f32>) attributes {noinline = false} {
    %0 = tt.splat %arg1 {autogradVisited = true, isCloned = true} : !tt.ptr<f32> -> tensor<4x!tt.ptr<f32>>
    %1 = tt.make_range {autogradVisited = true, end = 4 : i32, isCloned = true, start = 0 : i32} : tensor<4xi32>
    %2 = tt.addptr %0, %1 {autogradVisited = true, isCloned = true} : tensor<4x!tt.ptr<f32>>, tensor<4xi32>
    %3 = tt.splat %arg0 {autogradVisited = true, isCloned = true} : !tt.ptr<f32> -> tensor<4x!tt.ptr<f32>>
    %4 = tt.addptr %3, %1 {autogradVisited = true, isCloned = true} : tensor<4x!tt.ptr<f32>>, tensor<4xi32>
    %5 = tt.load %4 {autogradVisited = true, isCloned = true} : tensor<4x!tt.ptr<f32>>
    %cst = arith.constant {autogradVisited = true, isCloned = true} dense<5.000000e-01> : tensor<4xf32>
    %6 = arith.addf %5, %cst {autogradVisited = true, isCloned = true} : tensor<4xf32>
    %7 = arith.mulf %5, %6 {autogradVisited = true, isCloned = true} : tensor<4xf32>


    ////////////////
    /// backward ///
    ////////////////

    // load upstream (replaying transformations which were originally applied to out_ptr, replay on top of grad_out_ptr)
    %8 = tt.splat %arg3 {autogradVisited = true, isGradPtrRebase = true} : !tt.ptr<f32> -> tensor<4x!tt.ptr<f32>>
    %9 = tt.addptr %8, %1 {autogradVisited = true, isGradPtrRebase = true} : tensor<4x!tt.ptr<f32>>, tensor<4xi32>
    %10 = tt.load %9 {autogradVisited = true, isInserted = true} : tensor<4x!tt.ptr<f32>>

    // [backprop though MUL]
    // x grad: a * upstream
    %11 = arith.mulf %5, %10 {autogradVisited = true, isInserted = true} : tensor<4xf32>
    // a grad: x * upstream
    %12 = arith.mulf %6, %10 {autogradVisited = true, isInserted = true} : tensor<4xf32>

    // [backprop though ADD]
    // multiplication by 1 is omitted
    // grad a: grad x * 1 = grad x

    // NOTE: accumulate the two grads wrt A
    %13 = arith.addf %12, %11 {autogradVisited = true, isInserted = true} : tensor<4xf32>

    // store a grad
    //  1) load grad_a replaying transformations (which were originally applied to a_ptr) now replay on top of grad_a_ptr
    %14 = tt.splat %arg2 {autogradVisited = true, isGradPtrRebase = true} : !tt.ptr<f32> -> tensor<4x!tt.ptr<f32>>
    %15 = tt.addptr %14, %1 {autogradVisited = true, isGradPtrRebase = true} : tensor<4x!tt.ptr<f32>>, tensor<4xi32>
    //  2) store grad
    %16 = tt.atomic_rmw fadd, acq_rel, gpu, %15, %13 {autogradVisited = true, gradOf = "%17 = tt.load %16 : tensor<4x!tt.ptr<f32>>", isInserted = true} : (tensor<4x!tt.ptr<f32>>, tensor<4xf32>) -> tensor<4xf32>
    tt.return
  }
}

