module {
  tt.func public @add_kernel(%arg0: !tt.ptr<f32> {tt.divisibility = 16 : i32}, %arg1: !tt.ptr<f32> {tt.divisibility = 16 : i32}, %arg2: !tt.ptr<f32> {tt.divisibility = 16 : i32}) attributes {noinline = false} {
    %1 = tt.make_range {autogradVisited = true, end = 4 : i32, isCloned = true, start = 0 : i32} : tensor<4xi32>

    // NOTE: this %2 was used in store(%2, %10) -- but bc
    //  I'm currently deleting that store (as to not overwrite
    //  the upstream), this %2 is not used in fwd
    %0 = tt.splat %arg2 {autogradVisited = true, isCloned = true} : !tt.ptr<f32> -> tensor<4x!tt.ptr<f32>>
    %2 = tt.addptr %0, %1 {autogradVisited = true, isCloned = true} : tensor<4x!tt.ptr<f32>>, tensor<4xi32>

    // load a
    %3 = tt.splat %arg0 {autogradVisited = true, isCloned = true} : !tt.ptr<f32> -> tensor<4x!tt.ptr<f32>>
    %4 = tt.addptr %3, %1 {autogradVisited = true, isCloned = true} : tensor<4x!tt.ptr<f32>>, tensor<4xi32>
    %5 = tt.load %4 {autogradVisited = true, isCloned = true} : tensor<4x!tt.ptr<f32>>

    // x = a * 0.5
    %cst = arith.constant {autogradVisited = true, isCloned = true} dense<5.000000e-01> : tensor<4xf32>
    %6 = arith.addf %5, %cst {autogradVisited = true, isCloned = true} : tensor<4xf32>

    // load b
    %7 = tt.splat %arg1 {autogradVisited = true, isCloned = true} : !tt.ptr<f32> -> tensor<4x!tt.ptr<f32>>
    %8 = tt.addptr %7, %1 {autogradVisited = true, isCloned = true} : tensor<4x!tt.ptr<f32>>, tensor<4xi32>
    %9 = tt.load %8 {autogradVisited = true, isCloned = true} : tensor<4x!tt.ptr<f32>>

    // y = x * b
    %10 = arith.mulf %6, %9 {autogradVisited = true, isCloned = true} : tensor<4xf32>

    /////////////
    // backward
    /////////////

    // load upstream
    %11 = tt.load %2 {autogradVisited = true, isInserted = true} : tensor<4x!tt.ptr<f32>>

    // grad b (x * upstream)
    %12 = arith.mulf %6, %11 {autogradVisited = true, isInserted = true} : tensor<4xf32>
    // grad x (b * upstream)
    %13 = arith.mulf %9, %11 {autogradVisited = true, isInserted = true} : tensor<4xf32>
    // store b grad
    tt.store %8, %12 {autogradVisited = true, gradOf = "%18 = tt.load %17 : tensor<4x!tt.ptr<f32>>", isInserted = true} : tensor<4x!tt.ptr<f32>>
    // store a grad (in this case a grad == x grad, because grad of add is one)
    tt.store %4, %13 {autogradVisited = true, gradOf = "%15 = tt.load %14 : tensor<4x!tt.ptr<f32>>", isInserted = true} : tensor<4x!tt.ptr<f32>>
    tt.return
  }
}