module {
  tt.func public @add_kernel(%arg0: !tt.ptr<f32> {tt.divisibility = 16 : i32}, %arg1: !tt.ptr<f32> {tt.divisibility = 16 : i32}, %arg2: !tt.ptr<f32> {tt.divisibility = 16 : i32}) attributes {noinline = false} {

    // block_start = pid * BLOCK_SIZE
    %1 = tt.get_program_id x {autogradVisited = true, isCloned = true} : i32
    %c4_i32 = arith.constant {autogradVisited = true, isCloned = true} 4 : i32
    %2 = arith.muli %1, %c4_i32 {autogradVisited = true, isCloned = true} : i32

    // offsets = block_start + tl.arange(0, BLOCK_SIZE)
    %3 = tt.splat %2 {autogradVisited = true, isCloned = true} : i32 -> tensor<4xi32>
    %4 = tt.make_range {autogradVisited = true, end = 4 : i32, isCloned = true, start = 0 : i32} : tensor<4xi32>
    %5 = arith.addi %3, %4 {autogradVisited = true, isCloned = true} : tensor<4xi32>

    // todo: this was used in the fwd to STORE the output
    //  of the fwd -- but bc I'm deleting that STORE from FWD, as to
    //  not overwrite the upstream grad, these 2 ops are not used in FWD part of this graph
    //  ==> they are however used in the bwd part
    %0 = tt.splat %arg2 {autogradVisited = true, isCloned = true} : !tt.ptr<f32> -> tensor<4x!tt.ptr<f32>>
    %6 = tt.addptr %0, %5 {autogradVisited = true, isCloned = true} : tensor<4x!tt.ptr<f32>>, tensor<4xi32>

    // load a
    %7 = tt.splat %arg0 {autogradVisited = true, isCloned = true} : !tt.ptr<f32> -> tensor<4x!tt.ptr<f32>>
    %8 = tt.addptr %7, %5 {autogradVisited = true, isCloned = true} : tensor<4x!tt.ptr<f32>>, tensor<4xi32>
    %9 = tt.load %8 {autogradVisited = true, isCloned = true} : tensor<4x!tt.ptr<f32>>

    // x = a + 0.5
    %cst = arith.constant {autogradVisited = true, isCloned = true} dense<5.000000e-01> : tensor<4xf32>
    %10 = arith.addf %9, %cst {autogradVisited = true, isCloned = true} : tensor<4xf32>

    // load b
    %11 = tt.splat %arg1 {autogradVisited = true, isCloned = true} : !tt.ptr<f32> -> tensor<4x!tt.ptr<f32>>
    %12 = tt.addptr %11, %5 {autogradVisited = true, isCloned = true} : tensor<4x!tt.ptr<f32>>, tensor<4xi32>
    %13 = tt.load %12 {autogradVisited = true, isCloned = true} : tensor<4x!tt.ptr<f32>>

    // y = x * b
    %14 = arith.mulf %10, %13 {autogradVisited = true, isCloned = true} : tensor<4xf32>

    //////////////
    // backward //
    //////////////

    // load upstream
    %15 = tt.load %6 {autogradVisited = true, isInserted = true} : tensor<4x!tt.ptr<f32>>

    // grad b: x * upstream
    %16 = arith.mulf %10, %15 {autogradVisited = true, isInserted = true} : tensor<4xf32>
    // grad x: b * upstream
    %17 = arith.mulf %13, %15 {autogradVisited = true, isInserted = true} : tensor<4xf32>

    // store grad b at b ptr
    tt.store %12, %16 {autogradVisited = true, gradOf = "%28 = tt.load %27 : tensor<4x!tt.ptr<f32>>", isInserted = true} : tensor<4x!tt.ptr<f32>>
    // store grad x at a ptr (omitting multiplying by 1 for differentiating though add)
    tt.store %8, %17 {autogradVisited = true, gradOf = "%25 = tt.load %24 : tensor<4x!tt.ptr<f32>>", isInserted = true} : tensor<4x!tt.ptr<f32>>
    tt.return
  }
}

