module {
  tt.func public @add_kernel(%arg0: !tt.ptr<f32> {tt.divisibility = 16 : i32}, %arg1: !tt.ptr<f32> {tt.divisibility = 16 : i32}, %arg2: !tt.ptr<f32> {tt.divisibility = 16 : i32}, %arg3: !tt.ptr<f32> {tt.divisibility = 16 : i32}, %arg4: !tt.ptr<f32>, %arg5: !tt.ptr<f32>, %arg6: !tt.ptr<f32>, %arg7: !tt.ptr<f32>) attributes {noinline = false} {
    %0 = tt.splat %arg3 {autogradVisited = true, isCloned = true} : !tt.ptr<f32> -> tensor<4x!tt.ptr<f32>>
    %1 = tt.make_range {autogradVisited = true, end = 4 : i32, isCloned = true, start = 0 : i32} : tensor<4xi32>
    %2 = tt.addptr %0, %1 {autogradVisited = true, isCloned = true} : tensor<4x!tt.ptr<f32>>, tensor<4xi32>
    %3 = tt.splat %arg0 {autogradVisited = true, isCloned = true} : !tt.ptr<f32> -> tensor<4x!tt.ptr<f32>>
    %4 = tt.addptr %3, %1 {autogradVisited = true, isCloned = true} : tensor<4x!tt.ptr<f32>>, tensor<4xi32>
    %5 = tt.load %4 {autogradVisited = true, isCloned = true} : tensor<4x!tt.ptr<f32>>
    %cst = arith.constant {autogradVisited = true, isCloned = true} dense<5.000000e-01> : tensor<4xf32>
    %6 = arith.addf %5, %cst {autogradVisited = true, isCloned = true} : tensor<4xf32>
    %7 = tt.splat %arg1 {autogradVisited = true, isCloned = true} : !tt.ptr<f32> -> tensor<4x!tt.ptr<f32>>
    %8 = tt.addptr %7, %1 {autogradVisited = true, isCloned = true} : tensor<4x!tt.ptr<f32>>, tensor<4xi32>
    %9 = tt.load %8 {autogradVisited = true, isCloned = true} : tensor<4x!tt.ptr<f32>>
    %10 = arith.mulf %6, %9 {autogradVisited = true, isCloned = true} : tensor<4xf32>
    %11 = tt.splat %arg2 {autogradVisited = true, isCloned = true} : !tt.ptr<f32> -> tensor<4x!tt.ptr<f32>>
    %12 = tt.addptr %11, %1 {autogradVisited = true, isCloned = true} : tensor<4x!tt.ptr<f32>>, tensor<4xi32>
    %13 = tt.load %12 {autogradVisited = true, isCloned = true} : tensor<4x!tt.ptr<f32>>
    %14 = arith.divf %10, %13 {autogradVisited = true, isCloned = true} : tensor<4xf32>

    // load upstream
    %15 = tt.splat %arg7 {autogradVisited = true, isGradPtrRebase = true} : !tt.ptr<f32> -> tensor<4x!tt.ptr<f32>>
    %16 = tt.addptr %15, %1 {autogradVisited = true, isGradPtrRebase = true} : tensor<4x!tt.ptr<f32>>, tensor<4xi32>
    %17 = tt.load %16 {autogradVisited = true, isInserted = true} : tensor<4x!tt.ptr<f32>>

    // [first operand of div]
    // ones
    %cst_0 = arith.constant {autogradVisited = true, isInserted = true} 1.000000e+00 : f32
    %18 = tt.splat %cst_0 {autogradVisited = true, isInserted = true} : f32 -> tensor<4xf32>
    // y local
    %19 = arith.divf %18, %13 {autogradVisited = true, isInserted = true} : tensor<4xf32>
    // y downstream (local * upstream)
    %20 = arith.mulf %19, %17 {autogradVisited = true, isInserted = true} : tensor<4xf32>

    // b grad (x * y_grad)
    %21 = arith.mulf %6, %20 {autogradVisited = true, isInserted = true} : tensor<4xf32>
    // x grad (b * y_grad)
    %22 = arith.mulf %9, %20 {autogradVisited = true, isInserted = true} : tensor<4xf32>

    // [second operand of div]
    // pow
    %23 = arith.mulf %13, %13 {autogradVisited = true, isInserted = true} : tensor<4xf32>
    // div
    %24 = arith.divf %10, %23 {autogradVisited = true, isInserted = true} : tensor<4xf32>
    // neg
    %cst_1 = arith.constant {autogradVisited = true, isInserted = true} -1.000000e+00 : f32
    %25 = tt.splat %cst_1 {autogradVisited = true, isInserted = true} : f32 -> tensor<4xf32>
    // c local
    %26 = arith.mulf %25, %24 {autogradVisited = true, isInserted = true} : tensor<4xf32>
    // c downstream (local * upstream)
    %27 = arith.mulf %26, %17 {autogradVisited = true, isInserted = true} : tensor<4xf32>

    // store grad c
    %28 = tt.splat %arg6 {autogradVisited = true, isGradPtrRebase = true} : !tt.ptr<f32> -> tensor<4x!tt.ptr<f32>>
    %29 = tt.addptr %28, %1 {autogradVisited = true, isGradPtrRebase = true} : tensor<4x!tt.ptr<f32>>, tensor<4xi32>
    %30 = tt.atomic_rmw fadd, acq_rel, gpu, %29, %27 {autogradVisited = true, gradOf = "%37 = tt.load %36 : tensor<4x!tt.ptr<f32>>", isInserted = true} : (tensor<4x!tt.ptr<f32>>, tensor<4xf32>) -> tensor<4xf32>

    // store grad b
    %31 = tt.splat %arg5 {autogradVisited = true, isGradPtrRebase = true} : !tt.ptr<f32> -> tensor<4x!tt.ptr<f32>>
    %32 = tt.addptr %31, %1 {autogradVisited = true, isGradPtrRebase = true} : tensor<4x!tt.ptr<f32>>, tensor<4xi32>
    %33 = tt.atomic_rmw fadd, acq_rel, gpu, %32, %21 {autogradVisited = true, gradOf = "%34 = tt.load %33 : tensor<4x!tt.ptr<f32>>", isInserted = true} : (tensor<4x!tt.ptr<f32>>, tensor<4xf32>) -> tensor<4xf32>

    // store grad a
    %34 = tt.splat %arg4 {autogradVisited = true, isGradPtrRebase = true} : !tt.ptr<f32> -> tensor<4x!tt.ptr<f32>>
    %35 = tt.addptr %34, %1 {autogradVisited = true, isGradPtrRebase = true} : tensor<4x!tt.ptr<f32>>, tensor<4xi32>
    %36 = tt.atomic_rmw fadd, acq_rel, gpu, %35, %22 {autogradVisited = true, gradOf = "%31 = tt.load %30 : tensor<4x!tt.ptr<f32>>", isInserted = true} : (tensor<4x!tt.ptr<f32>>, tensor<4xf32>) -> tensor<4xf32>
    tt.return
  }
}

